model.pt (torch, 11159 bytes, 6 tensors)

weight f4 [25, 10]
000000 78 c2 31 3e 48 3f 15 3e 9e 44 78 3e d7 50 b4 3e
       0.1735934 0.14574921 0.24244925 0.35217926
000010 86 df b9 3d 97 75 9a 3e 29 64 45 be f8 55 3e 3e
       0.09075837 0.3016784 -0.1927649 0.18587482
000020 97 4b d7 3e f3 ea cd 3e 16 c8 fa 3c fa f7 9a 3e
       0.42049858 0.40218315 0.030612987 0.30267316
000030 81 ac f0 3d 4f c6 a7 bd 88 72 d2 3d 87 57 ec 3c
       0.117516525 -0.08192121 0.10275751 0.02885033
000040 b6 0b 4a 3e b4 9a 25 be 42 4e 34 3e f9 fb 9b 3e
       0.1973103 -0.16172296 0.17607978 0.30465677
000050 8e 58 14 bd 67 bb 96 bd 21 a9 85 3c 07 d2 a4 be
       -0.036217265 -0.07359963 0.016315999 -0.32191488
000060 8e d3 65 3e 13 39 87 bd 8f 05 29 be cf 45 e5 bd
       0.22443983 -0.06602683 -0.16506027 -0.111949556
000070 9b 7f 73 3d bf 30 1c be 32 d4 4e 3e 90 49 ea 3e
       0.059447866 -0.1525297 0.20198134 0.4575925
000080 45 9a 57 be 0e b8 73 3e d2 b4 97 be 4f 52 dd be
       -0.21054943 0.2380068 -0.29630142 -0.4322686
000090 1e c8 a0 3e 4b 82 55 bd c7 dd 06 3f d8 3c 7c 3e
       0.31402677 -0.05212621 0.52682155 0.24632585
0000a0 3f 18 23 3e d1 c6 0c 3f 91 44 c1 bd 9c 5e d6 3d
       0.15927218 0.5499087 -0.09436906 0.10467264
0000b0 8f a7 12 3f 16 2e bb 3c 90 9c ea bc f2 af 9e bd
       0.57286924 0.022849124 -0.028639108 -0.07748403
0000c0 23 79 2b bf 79 83 2f 3f 3c 54 d0 3d 24 c3 fa 3d
       -0.66981715 0.68559986 0.101723164 0.12244251
0000d0 92 20 a5 be 71 53 a4 3e 36 1b 76 be 57 d4 e3 3e
       -0.32251412 0.3209491 -0.24033818 0.4449794
0000e0 a7 91 bc bd ff 13 96 3e 2f 3b 8f be ce cb cb 3d
       -0.092074685 0.2931213 -0.2797484 0.09950982
0000f0 8d 22 9e bd 0c f6 81 bd c6 d0 3d be dd ea 5f be
       -0.07721434 -0.06345758 -0.18536672 -0.21866937
000100 8a a8 11 be e4 8d 52 be d0 32 87 3d 32 6b c0 3c
       -0.14224449 -0.2056194 0.066014886 0.023488615
000110 10 e3 d6 bd 1b 36 2b be 48 4b 7b 3e 64 4b 62 3e
       -0.104925275 -0.16719858 0.24540436 0.22099072
000120 d9 c1 b8 3d fd 98 bc bd 41 56 f9 bd 5e bc 7c 3e
       0.090213485 -0.09208868 -0.12174655 0.24681231
000130 34 14 97 3d 0f 64 a9 3e 96 b0 03 3f af e3 45 bd
       0.073769 0.3308415 0.51441324 -0.04831284
000140 4a a9 9b 3d b7 d7 12 be 9e a8 48 3e d7 33 af 3e
       0.07600649 -0.14340101 0.19595572 0.34219238
000150 e7 d0 78 bc 86 ab d6 3d af 3e c6 3d c6 28 c4 bd
       -0.015186525 0.10481934 0.09679925 -0.095780894
000160 0f fa 43 3e 35 8f e2 bc 76 c7 39 3d 15 d2 39 be
       0.19138359 -0.027656177 0.045356236 -0.18146546
000170 6c e1 e0 3e 34 26 ff 3d c2 2e 8e be 4e 57 5c bb
       0.43921983 0.124584585 -0.27770048 -0.0033621374
000180 56 91 15 3e 7d 16 09 3e 58 9b 94 3d bf 52 c9 3e
       0.14606223 0.13387485 0.07256192 0.39320943
000190 ed db e4 3c ef eb 83 3d 77 f2 a0 bd 13 74 2c be
       0.0279369 0.06441485 -0.078587465 -0.16841154
0001a0 63 ae 3c 3e 67 b0 39 bd 27 26 89 3e 06 68 28 bd
       0.18425898 -0.045334246 0.2678692 -0.04111483
0001b0 8c b9 d9 3e 70 4e 16 3f b2 67 35 3e 64 e5 41 bc
       0.42524374 0.58713436 0.17715338 -0.011834476
0001c0 2a 54 98 3e d8 df bb bd ec d3 53 3d 83 39 24 3d
       0.29751712 -0.09173554 0.051715776 0.04009391
0001d0 4e 1c 31 be 30 40 87 be aa a9 dd 3e 9f 98 50 bc
       -0.17295954 -0.2641616 0.43293506 -0.0127317
0001e0 f9 05 1e 3e 54 eb 9b 3e 9c 15 17 3f d4 c8 2c be
       0.15431966 0.3045298 0.5901735 -0.16873485
0001f0 6b a9 a7 be 08 ac 62 3f dd 86 37 3f 13 73 ca be
       -0.32746443 0.8854375 0.7169016 -0.3954092
000200 4b 46 52 3e 9e 44 b4 bd ac b4 38 3e 5b b7 f3 bd
       0.20534627 -0.0880215 0.18037671 -0.11900207
000210 56 ca 83 3d 2b a6 71 3d 86 56 06 3d 74 8c 47 be
       0.06435077 0.05899636 0.03279736 -0.19487172
000220 d0 dd 08 bb 01 d0 9c 3e 69 52 1a 3f 60 bf b7 3d
       -0.0020884164 0.30627444 0.60282 0.08972049
000230 5d 2d 57 3b 77 c7 8d 3e 60 9a af be 63 c4 91 3e
       0.0032833435 0.27691242 -0.34297466 0.28470144
000240 5f e6 37 be 08 ee a9 be ac b0 00 3f de 83 91 3e
       -0.17958973 -0.33189416 0.5026958 0.2842092
000250 05 2b 8a 3e b3 00 c4 3e b3 70 30 be 95 c7 8e be
       0.26985946 0.38281783 -0.17230491 -0.27886644
000260 cc 79 69 3e 7d b4 b3 3e 7b 39 d1 3e 61 b9 a8 bd
       0.22800368 0.3509864 0.40864167 -0.08238483
000270 90 f4 69 3e 68 06 46 3e c5 df 15 3e 65 84 3d 3c
       0.228472 0.19338381 0.14636143 0.01156721
000280 ba b8 90 be cd 06 50 3e 1b 14 d0 3d ad cd 8c be
       -0.28265935 0.20315094 0.10160085 -0.27500668
000290 0c 21 12 be b8 66 0d 3d cc ff 0a 3f de 6e d5 3c
       -0.14270419 0.03452179 0.54296565 0.026053842
0002a0 3f 82 87 3e 86 65 9f 3e 88 bd da 3d c3 e3 9d bd
       0.26466557 0.31132144 0.106806815 -0.07709458
0002b0 41 23 14 be a6 a5 8a 3d bc ad 12 3e 34 b6 48 bd
       -0.14466573 0.06769876 0.14324087 -0.049001887
0002c0 63 c3 0b be 7b 56 ad 3e 21 b4 ab bd 34 8a 8b 3e
       -0.13648753 0.33855042 -0.08383966 0.27253878
0002d0 5c 75 4a be 77 05 f4 3e a4 e4 65 3e a5 1a 0a bd
       -0.19771332 0.4766042 0.224505 -0.033716816
0002e0 d3 08 6d 3d 53 c2 51 bd 88 38 67 3e a4 8c a8 3e
       0.057869744 -0.051210713 0.22580159 0.329198
0002f0 dc 38 62 3e 2e d5 f5 bd 24 57 93 bd 16 a6 91 3e
       0.22092003 -0.120035514 -0.07194355 0.28447026
000300 a5 0a 0a be 3d 80 61 3d d4 92 c1 bd a4 fa e6 3e
       -0.13480623 0.05505394 -0.09451833 0.451131
000310 da a2 52 be 85 6d a4 3b 6d 32 c3 3e 7b 9b 60 3e
       -0.20569935 0.0050179386 0.3812441 0.21934311
000320 db e0 6c 3d e6 1d 0d 3e f5 d1 c6 3e a1 97 95 3e
       0.057831626 0.13780937 0.3883206 0.29217246
000330 d7 76 ac 3e 1b b7 93 bd 5e 1e 0b 3d 2e 47 75 be
       0.33684418 -0.07212659 0.033964507 -0.23952934
000340 6f 47 22 3e cc 70 ac 3e 13 7b 24 bd f8 b7 c5 bd
       0.15847562 0.33679807 -0.040156435 -0.0965423
000350 2b 14 bc bd 3b 7b b4 3e 56 96 2f 3d f5 6c 24 bf
       -0.09183534 0.35250267 0.04286798 -0.64228755
000360 07 82 a4 3e 6f d6 5b 3e 8a a7 b7 3e cd cd 87 3d
       0.32130453 0.21468519 0.3587001 0.0663105
000370 5f 89 89 3e 1b c3 fb 3d 51 8f a0 3e 51 a0 94 3e
       0.26862618 0.12293073 0.31359342 0.29028562
000380 3c 3d 03 3f 1a e2 39 bd 8f fc 0b 3f d4 6c c8 3e
       0.5126531 -0.045381643 0.5468225 0.3914553
000390 a6 6e 03 bf c2 a4 8b 3c e0 62 05 3e 51 8b 25 3e
       -0.5134071 0.017046336 0.13025999 0.16166426
0003a0 39 f5 13 3f 27 40 b6 3d d5 97 ca 3e 3c da dc be
       0.57796055 0.08898955 0.39568964 -0.4313525
0003b0 07 95 35 be 98 57 6b 3e e0 d5 8c 3e 3d d1 e0 bd
       -0.1773263 0.22982633 0.27506924 -0.10977409
0003c0 37 d6 3e bd c9 d8 1f bd 8e 3a 08 3e e7 68 68 3e
       -0.04659101 -0.0390251 0.13303587 0.22696267
0003d0 cf c3 a6 3e 1b ba c8 ba f4 04 9f 3e 1a c6 35 be
       0.32571265 -0.0015314253 0.31058466 -0.17751351
0003e0 15 b3 a4 3e d3 59 af 3e
       0.3216788 0.34248218

bias f4 [25]
000000 da 9c b7 be a3 be 55 be 59 63 f7 3d 3d c3 b2 3f
       -0.35861856 -0.20873503 0.12079496 1.3965832
000010 30 e7 02 bf a7 7b 5c be 82 37 53 bd 43 c7 6f bf
       -0.51134014 -0.21531545 -0.05156661 -0.93663424
000020 21 30 8d 3e 61 ed 84 3e 43 67 b6 3f 03 4c af 3e
       0.27575782 0.25962356 1.4250263 0.3423768
000030 67 71 84 3f 87 28 02 bf b1 1f f8 3e db fb 38 3e
       1.0347108 -0.5084309 0.4846168 0.18064825
000040 e7 73 e4 be 22 05 88 3e bf 99 02 3f f3 0f e2 3e
       -0.44619676 0.26566416 0.5101585 0.44152793
000050 d7 03 dc 3d 36 1c 43 3f a8 ff 21 3f 60 7b 76 3f
       0.1074292 0.7621492 0.63280725 0.96282005
000060 e2 a8 f0 be
       -0.47003847

weight f4 [50, 25]
000000 0e f6 68 3d cd 0c fd ba 3d 62 62 3e 30 31 93 3e
       0.05687528 -0.0019306183 0.22107787 0.28748465
000010 d4 8a 8c 3e 22 a6 fa 3e 50 e1 27 3e 83 67 a3 3e
       0.27449667 0.48954874 0.16394544 0.3191491
000020 79 c8 8b 3d 7e e8 05 bf af 93 4c 3e 90 0d dc 3d
       0.068253465 -0.5230788 0.19978212 0.10744774
000030 9d 1a d4 be 4d 29 3b 3e 87 31 92 bd a4 9d 14 3e
       -0.41426554 0.18277474 -0.07138353 0.1451326
000040 18 a9 7f 3e 98 93 1f 3e b8 22 9e 3c 3e 14 46 3e
       0.24966848 0.15583646 0.019303665 0.1934366
000050 b6 15 5e 3e d2 b6 a0 3b a3 40 a4 3e c2 97 e8 3e
       0.2168797 0.0049046064 0.32080564 0.45428282
000060 53 0c c3 3d 52 d7 3f be af 9b ad 3d c1 6c 2e bd
       0.09523835 -0.18734482 0.0847696 -0.042584185
000070 02 9b fe 3d 64 f9 4f be 01 a6 d0 3c 77 ae 39 3e
       0.12431909 -0.20309979 0.025469782 0.1813296
000080 43 ad b9 3e ad 2f 62 be db 78 c9 3e b0 b9 0d be
       0.36265 -0.220885 0.39350018 -0.13840365
000090 d8 0c 04 bd 09 dd a1 3e 02 1c 0f 3f 3c a7 b9 3e
       -0.03223881 0.3161395 0.5590211 0.36260402
0000a0 1c d6 c8 bd eb 35 fc 3d 0f 65 62 3e 7a 56 dc 3e
       -0.09806463 0.123149715 0.22108863 0.43034726
0000b0 b7 07 a1 be b9 34 36 be 5b ce 9f bd ab d0 9f 3e
       -0.31451198 -0.1779355 -0.07803031 0.3121389
0000c0 3d 9d 2b bd 39 54 47 be 6b e6 a2 3d 9a a0 eb bd
       -0.041898 -0.19465722 0.07954105 -0.11505242
0000d0 70 e3 d3 3c f9 79 c1 3e f8 5a 31 3f 8d 91 93 bc
       0.025865287 0.3778837 0.6927943 -0.01801374
0000e0 3a f2 52 3d 23 de 84 3d 95 71 96 3d 4a d4 66 3d
       0.051500537 0.06487682 0.07345883 0.0563548
0000f0 69 b2 7f 3f e9 63 9b be 4f a4 73 3e 1e f7 32 bd
       0.9988161 -0.30349663 0.23793148 -0.0436927
000100 04 16 3d be 0c 60 63 3d fb e8 74 3e 2c 08 88 3e
       -0.1846543 0.05551152 0.23917 0.26568735
000110 1f 97 3b bc a3 c7 f9 be 5d 8e e8 bd 8f 2d 73 be
       -0.011449604 -0.48785123 -0.11355279 -0.23747848
000120 98 6c 4c 3e c3 49 43 3e 3a 16 0f 3e 87 c0 81 3e
       0.199633 0.19071107 0.13973323 0.253422
000130 05 bc 14 3e 5a dd 0b 3e 53 bc 87 3e 7c 43 9a 3e
       0.14524849 0.13658658 0.26510867 0.30129611
000140 96 f5 df bc 33 13 da b9 88 b9 c9 3d de ac 87 3d
       -0.027338784 -0.00041594505 0.098498404 0.06624769
000150 19 2c 52 3f d6 c6 36 bf 9a 7c 00 3f 46 f7 18 3e
       0.8209854 -0.7139715 0.50190127 0.14938077
000160 29 ad b9 bd 07 42 ae 3d 56 f4 83 be da 87 08 3e
       -0.09066231 0.085086875 -0.2577235 0.13333073
000170 b5 32 45 be f4 2b 0a 3e 2d 3f 39 3f c5 27 be 3c
       -0.19257624 0.1349333 0.72362024 0.023212323
000180 36 61 81 be 88 21 e7 be 17 e7 9b 3e 05 7a 8b be
       -0.2526948 -0.4514277 0.30449745 -0.2724153
000190 0a e3 1e 3e ed 5d 05 3d 57 e6 af 3d bb 18 1a be
       0.15516296 0.032560278 0.08588856 -0.15048496
0001a0 6d 04 1c be 15 50 da bd ba 86 49 bd ad 4d 40 3d
       -0.15236063 -0.10659806 -0.04920075 0.046949077
0001b0 12 18 88 3e d7 4d b8 bd 73 51 09 bd 2f ef 81 3e
       0.26580864 -0.08999222 -0.03352494 0.25377795
0001c0 94 65 b4 3e 4c b0 37 3e 3e 8b 8b 3e a7 fd 15 3e
       0.35233748 0.17938346 0.2725467 0.14647542
0001d0 68 f0 98 3c da 1c 1d be 85 2d 2b 3e 01 a2 ed bd
       0.018669322 -0.15343037 0.16716583 -0.116031654
0001e0 bd ea 24 3d 47 af 40 3e 8c 01 0e 3e b1 45 91 be
       0.040262926 0.18816863 0.13867778 -0.28373483
0001f0 25 af 4b 3d 14 80 9a 3b 99 92 43 bd 77 07 a0 3d
       0.049727578 0.004714975 -0.04774723 0.07813924
000200 fc 3b e9 be 30 04 98 3e a3 f4 fe bd f3 84 97 3c
       -0.45553577 0.29690695 -0.124490045 0.018496012
000210 e9 d6 48 3e c2 d4 b8 3d 60 c5 0b be b2 e3 e0 3d
       0.19613232 0.09024955 -0.13649511 0.109809294
000220 78 34 84 3c 5d 82 cd 3e d6 3a 47 3c 79 77 ac 3d
       0.0161383 0.40138522 0.012160024 0.08421225
000230 31 50 0d 3e 25 db 0c 3e 34 08 d6 3d a0 81 ac 3d
       0.13800122 0.13755472 0.10450783 0.084231615
000240 70 5e f9 b9 9b c7 ed bd 12 9b c1 bd ec 97 13 bd
       -0.00047563342 -0.11610337 -0.094534054 -0.036033556
000250 07 b8 d5 bd 86 53 3e 3e 5f ef 1b be 10 0e f7 bd
       -0.10435491 0.18586549 -0.15228032 -0.12063229
000260 c7 63 3b 3d a0 95 10 bd 33 ce ba 3b c2 8f 38 be
       0.045749452 -0.035298944 0.0057008504 -0.18023589
000270 45 a8 23 3e aa 94 a6 bd c2 6f 2d be b3 65 7b bc
       0.15982158 -0.08133824 -0.16937163 -0.015344071
000280 9a dd a1 3a 67 27 15 3c 20 9f 1c be 4d a1 4c 3c
       0.0012349368 0.0091036325 -0.15295076 0.012489629
000290 e0 8d 52 3d bf 24 05 be b0 d7 aa bd 0d d8 26 bd
       0.051404834 -0.13002299 -0.083419204 -0.040733386
0002a0 65 86 0d 3e d3 ec 00 3e e7 29 76 bd 57 b9 45 3e
       0.13820799 0.12590341 -0.060098555 0.19308983
0002b0 d7 85 2b be 4d 89 6a bd 68 4d 45 be 39 e4 9b 3d
       -0.16750275 -0.057259846 -0.1926781 0.076118894
0002c0 72 b0 e0 3d 18 ce 0b 3e b2 79 f4 bd 5d 2f 70 be
       0.10971154 0.13652837 -0.11937274 -0.23455568
0002d0 c9 7a 09 3e 1b f0 3b 3e e6 03 f7 3c dd 2d 37 be
       0.13425745 0.18353312 0.030153226 -0.17888589
0002e0 10 e4 1c 3d e9 b7 4e bb 98 a2 8a 3d 3c 31 2a be
       0.038303435 -0.0031542724 0.067692935 -0.16620344
0002f0 02 13 b8 3c c6 d0 27 be 88 47 c3 bd 84 a6 94 3d
       0.022470001 -0.16388234 -0.09535128 0.07258323
000300 01 e4 34 be 59 92 85 3d 64 8c 81 be 84 e6 5e be
       -0.17665102 0.06522054 -0.25302422 -0.21767622
000310 b9 e8 f3 bc d3 2a 28 be ae e3 a8 3c 52 46 91 bd
       -0.029774057 -0.16422586 0.020616379 -0.07093491
000320 0b 8a 6a 3e 1c 39 e8 bd 32 15 be 3c 8a e4 4b be
       0.22904222 -0.11339018 0.023203466 -0.199114
000330 d1 20 66 bd df eb c3 bd 80 33 7e bc 7b 87 22 3d
       -0.05618364 -0.09566473 -0.015515208 0.039679985
000340 dc c7 e4 3c 61 ae a2 be 7d 45 47 be d6 43 74 3e
       0.027927332 -0.31773666 -0.19460101 0.23854002
000350 ea b7 6b 3d c7 ce 02 bd 1c 7e 7c 3e d3 15 76 ba
       0.05754844 -0.03193548 0.24657482 -0.00093874073
000360 54 bf 30 3e ad 5a b8 bd d8 8a e5 3d ec 5e 07 bd
       0.17260486 -0.0900167 0.11208123 -0.03304951
000370 aa 4e 6c 3e a0 3b 9e bc bf 01 3a bd 68 72 b8 bd
       0.23076883 -0.01931554 -0.04541182 -0.09006196
000380 46 6a 10 3e e1 62 45 3e 50 94 57 3e 69 f3 ad 3d
       0.1410304 0.19276 0.2105267 0.084936924
000390 9d 84 4b 3e 55 70 2d be 0c 85 1c 3e 27 7e aa bc
       0.19874807 -0.16937383 0.15285128 -0.020812107
0003a0 53 85 19 bd a9 e2 a9 bd 77 3b 3e be cc 8b 86 bc
       -0.037480664 -0.08295185 -0.18577372 -0.016424082
0003b0 af 7d e6 bd c4 9e 72 3c 36 f9 30 3d 70 fb 5e 3d
       -0.11254441 0.0148083605 0.043206416 0.05443901
0003c0 f9 1e 57 be c4 76 54 be 66 11 0d 3e b7 8b 7c 3e
       -0.21007909 -0.2074843 0.13776168 0.24662672
0003d0 66 59 eb 3d d7 bb f2 3c 47 36 00 3e bf 88 f7 bc
       0.11491661 0.029630585 0.12520705 -0.030216573
0003e0 be 87 f3 bd 95 16 e8 3d cd 68 8d be c8 06 88 3c
       -0.11891125 0.11332432 -0.2761902 0.016604796
0003f0 b8 4f ce 3d ae 04 31 3e f1 f9 71 be 91 4c 53 3e
       0.10073799 0.17286941 -0.23630501 0.20634677

bias f4 [50]
000000 ca d2 d2 3e 20 af 2b 3f 8a 14 f8 3b 3e c6 33 3f
       0.41176444 0.67064095 0.007570808 0.7022437
000010 b0 f9 ac 3d d0 85 59 3e 33 46 48 be 2b e1 a8 bc
       0.084460616 0.21242452 -0.19558029 -0.020615181
000020 7c 8a 08 3d 36 a4 21 bd b4 c9 94 3f 37 ba a5 be
       0.033335194 -0.039463244 1.1624055 -0.32368633
000030 6a 46 d7 3d 8d 0a 8d 3e 6a 7d 1c 3f 0b 37 e9 bd
       0.10511477 0.27547112 0.61128867 -0.11387452
000040 5b 55 7d bf c8 8a 87 bc fa d5 88 3e 67 4d 21 bf
       -0.9895837 -0.016545668 0.2672575 -0.6300873
000050 63 84 8d 3c b3 98 a9 bc 9a fe 8f 3e 00 cb 35 3d
       0.017275041 -0.020702695 0.28123933 0.04438305
000060 42 05 b8 be db 6a 10 40 e5 ee 34 3e 55 c5 2a 3e
       -0.3594151 2.256522 0.17669256 0.16676839
000070 ee 72 5b be 30 5a 7b be fd d4 a1 3e 21 38 f6 3e
       -0.21430561 -0.24546123 0.3160781 0.48089698
000080 98 d5 9d 3d 66 3b a7 be b4 aa b7 bd 1a 3b 04 bf
       0.077067554 -0.32662505 -0.08968106 -0.5165268
000090 07 43 db be 35 ea 14 3f 7d 98 72 be 6b ce 1b 3f
       -0.42824575 0.5816987 -0.23690982 0.60861844
0000a0 96 64 34 3e 3a c3 2f be fe f7 e0 3e d4 f0 af 3e
       0.17616495 -0.17164317 0.43939203 0.34363425
0000b0 54 10 69 be 2c 00 4a bd 7e 07 69 3d 57 16 3a be
       -0.22760135 -0.04931657 0.05689191 -0.18172584
0000c0 6a 70 63 3e 95 3a d7 3d
       0.22210851 0.105092205

weight f4 [10, 50]
000000 5d b6 1f 3e 13 6f a8 bc e8 d6 03 bd a8 ca 72 3e
       0.1559691 -0.020560777 -0.032187372 0.2371012
000010 de 4f fe 3c 60 53 d6 bd c6 24 a6 bd 63 57 fd 3d
       0.031043943 -0.10465121 -0.08112483 0.12370183
000020 63 ea af 3d b8 96 40 3e e6 e0 78 3a ed a1 b4 3d
       0.085896276 0.18807495 0.00094939617 0.088199474
000030 86 57 95 bd bb 7b 9e 3c 14 a8 4b 3c fd 47 bb bd
       -0.072920844 0.019346109 0.01243021 -0.0914459
000040 59 86 5d bd cc 27 4d bd 74 b0 8b bc 9a f9 5b bd
       -0.054083202 -0.05008678 -0.017051913 -0.053704835
000050 9a 0c a0 bd 45 eb 44 bd bc 79 00 3e 1a d5 04 3e
       -0.078149036 -0.048075933 0.12546438 0.12971917
000060 1f c2 74 3b d7 5f 78 bd 53 70 30 be a3 58 d2 3d
       0.003734715 -0.060638275 -0.17230348 0.10270812
000070 07 a0 54 3d 05 62 12 bd 03 37 58 bc 68 c8 f8 bd
       0.051910426 -0.03573801 -0.01319671 -0.121475995
000080 e6 e2 0e 3e 93 de d8 3a ba 35 d4 3e a7 6c 2d be
       0.13953742 0.0016545824 0.4144724 -0.16935979
000090 51 72 03 be 73 f8 31 bc 61 e2 1c 3e e0 28 c7 3d
       -0.12836577 -0.010862458 0.15320732 0.09724593
0000a0 9a ab 31 3e 92 11 e8 3c b1 a5 19 b9 b1 44 9a 3e
       0.17350617 0.02832869 -0.00014652942 0.30130532
0000b0 2b c0 95 3e 74 39 7f bd 27 75 04 3d 54 33 6f be
       0.29248175 -0.06231065 0.032338288 -0.23359424
0000c0 14 81 ee bd ba 78 1f be 02 91 fb 3c 5a 25 6d be
       -0.116457134 -0.15573397 0.030708794 -0.2315878
0000d0 0c c9 cb bc 4a 0e 19 3e c0 52 01 3e 2c 35 22 be
       -0.02487614 0.14946857 0.12629223 -0.15840596
0000e0 89 a5 0d be 9e 52 69 bd 32 50 2b 3c 3e 48 61 3d
       -0.13832678 -0.056963556 0.010456132 0.055000536
0000f0 8c b4 e1 bc 2d 06 36 be 8a f4 f5 bd 22 cb 28 3d
       -0.027551912 -0.17775793 -0.12009533 0.041209348
000100 b9 6c 92 3c 3f 94 b1 3d 97 20 13 3c 51 87 86 bd
       0.017874109 0.08670854 0.008979938 -0.06568778
000110 cb 4b ed 3d 4a 8a 2c bd c1 dc 12 3e dc c7 74 bd
       0.11586722 -0.04212407 0.14342023 -0.059760913
000120 90 b7 fa bc d0 7f 0a 3e da b9 14 ba a2 df dc bc
       -0.030605108 0.13525319 -0.0005673446 -0.026962105
000130 9c ce 20 3e e1 5b 49 3c 70 ba e5 bd aa e1 be 3b
       0.15703815 0.012289972 -0.11217201 0.005825241
000140 4d 81 5b be 35 89 d2 bd 98 10 b2 bd 62 e7 2f bd
       -0.21436043 -0.102800764 -0.08694571 -0.042945273
000150 75 9c 0d 3f 18 f5 06 be c4 43 2a bd 8e b5 13 bc
       0.5531686 -0.13179433 -0.041568533 -0.009015454
000160 04 87 30 3e d0 7c 58 3e c9 31 75 3e 98 05 9d 3d
       0.17239004 0.21141362 0.23944773 0.076670825
000170 3c 1c 71 3d 87 f6 39 3c 17 5c 5e be 49 df 68 3d
       0.058864817 0.011350281 -0.21714817 0.056853566
000180 b6 db 68 3e 4d aa cc 3d 9a 64 a0 3c c4 50 ab be
       0.22740063 0.0999342 0.01957922 -0.33460057
000190 01 f5 4e 3e c9 f3 91 be 06 06 a7 3c 9f 15 9c 3d
       0.20210649 -0.28506306 0.020388614 0.076213114
0001a0 65 c9 22 3d 62 1a a2 3d 30 ad 37 3b 23 66 13 3c
       0.039742846 0.07915188 0.0028026812 0.008996519
0001b0 9c 8a d1 3d 73 d2 ca 3d 34 84 2e 3b 25 9a 38 3e
       0.10231516 0.09903421 0.0026629092 0.18027551
0001c0 1a 8f ad 3d 8c 4d a3 bc 7b 83 18 bc 19 4e 37 3d
       0.0847456 -0.019934438 -0.009308691 0.044752214
0001d0 35 27 b9 3c 2f ef 33 3d 00 bf fb 3d f1 72 8b 3c
       0.022601703 0.043929275 0.1229229 0.017022582
0001e0 71 01 25 3d de 7e a0 bb a4 01 6a 3e 01 9e 8d 3c
       0.040284578 -0.0048979362 0.22852188 0.017287256
0001f0 7d 0d 52 3b 9e 61 d1 3b 64 ea 6e be 69 4e 81 bd
       0.0032051497 0.0063898107 -0.233316 -0.06313784
000200 3f f7 4a 3c 05 09 cd 3d f2 df 1f 3e f9 05 69 be
       0.01238805 0.10011486 0.15612772 -0.22756185
000210 96 a0 73 3e a0 bc 50 bc 9c 5f 0d bf 1d b4 65 3e
       0.23791727 -0.012740284 -0.55224013 0.22431989
000220 b8 2b c9 3d 5c 75 2f 3c ad 2d 27 3e 09 2a 64 be
       0.09822792 0.010709133 0.16326018 -0.2228166
000230 86 e9 81 3e 39 09 f4 3d 0d ec b0 3c 03 29 25 3e
       0.25373477 0.119158216 0.021596933 0.16128926
000240 21 9d b2 be eb f3 29 3d 86 0d 38 3e 19 d7 77 be
       -0.34885505 0.041492384 0.17973909 -0.24203147
000250 9d 27 2a 3e 52 2b d3 3c 1c 6e b8 3e 24 fc dc bd
       0.16616674 0.025777493 0.36021507 -0.107902795
000260 00 19 04 3e 47 05 87 be 37 8e fb 3d e5 8e ba 3d
       0.12900162 -0.26371214 0.12282985 0.09109286
000270 1c fb e7 3c 72 e0 01 3e fb 7f 1b 3e 9f 29 23 3e
       0.02831798 0.12683275 0.1518554 0.15933846
000280 48 4a 41 bc f7 8d c4 bd 5d fa 89 3d a6 d5 34 bc
       -0.011797495 -0.0959739 0.06737206 -0.011037266
000290 e9 ef a1 bc 5e a1 bf 3c a1 81 17 bd 1a f4 14 3e
       -0.019767718 0.023392376 -0.036988858 0.14546242
0002a0 6c c5 0c be f5 a8 34 3c 7b 85 fa 3d ba ea 08 3e
       -0.13747185 0.011026611 0.12232491 0.13370791
0002b0 8f 1c ba 3c 97 e3 f1 bd 6e 62 8c bc c8 0e e8 3c
       0.022718696 -0.118109874 -0.017136779 0.02832736
0002c0 0a 07 be 3d cd 45 24 3e eb d9 eb 3d 94 6d 8b 3c
       0.09278686 0.16042252 0.11516174 0.017020024
0002d0 79 2c 16 3d 0f 74 91 3c b7 7f 4b 3e 5e cc 52 3c
       0.036663506 0.017755536 0.19872938 0.012866108
0002e0 26 34 42 3c 7e 6c a6 be 49 af db 3d b4 37 99 3b
       0.0118532535 -0.32504648 0.10726792 0.00467583
0002f0 ff 87 7e 3d 22 a7 37 bd 19 bb b1 bd 68 ca a4 3d
       0.062141415 -0.044837125 -0.08678264 0.080464184
000300 07 f0 40 3b 85 00 29 bd f3 f0 a8 bd 2d 78 ab 3d
       0.0029439942 -0.04126026 -0.082490824 0.08372531
000310 27 04 2c 3d ac 99 45 3d ee e3 46 be 20 3e 32 3e
       0.041996147 0.048242256 -0.19422886 0.17406511
000320 61 4e 57 be 8f 6d 28 be 97 08 18 bd ef 3e fd 3c
       -0.21025993 -0.16448043 -0.037117567 0.030913798
000330 b8 fc d6 3d 59 e2 35 3e 9c af 8d 3b 22 55 34 3d
       0.10497421 0.17762126 0.004323913 0.0440265
000340 31 ae c4 3d 29 62 81 bd bc b2 d7 3b f7 55 f9 3d
       0.09603537 -0.06317551 0.006582586 0.121745996
000350 5a ec 4b bd 5d 26 f1 bc 4d 54 a2 3c 57 90 28 3d
       -0.04978595 -0.029437238 0.019815588 0.04115328
000360 07 ee 1b be ad 1d 8a 3d f3 e8 32 3e 91 36 1f 3a
       -0.15227519 0.067439415 0.17471676 0.00060734997
000370 c8 b1 d2 3d 4a bd fb bc b8 06 ad 3b 5c 69 b5 3c
       0.10287815 -0.030729908 0.005280342 0.022144966
000380 f1 5a 1a bc 0a 6a ba 3d 82 68 33 3d 34 1d 0c 3e
       -0.009421096 0.091022566 0.04380084 0.13683015
000390 d8 05 bf bd e2 67 c5 bb a3 c6 b9 3d 50 b9 2a bd
       -0.093272865 -0.0060243467 0.0907109 -0.041680634
0003a0 22 3f 3b 3d f1 30 00 bb 7a 9e bc be 29 82 14 be
       0.045714505 -0.0019560421 -0.36839658 -0.14502777
0003b0 94 ea 2c 3e 4e 82 e9 bc 2c 6e 50 bd 97 89 64 bd
       0.1688636 -0.028504517 -0.050886318 -0.05579528
0003c0 46 5f 84 3e fa 62 9f bd 63 e1 c3 bb f5 83 7c 3c
       0.25853938 -0.0778255 -0.005977796 0.01541232
0003d0 aa 58 82 3e a2 c6 ca bd 13 f6 85 3d f9 b0 a3 3e
       0.2545827 -0.099011675 0.065410756 0.31970957
0003e0 20 36 b7 3d 35 31 0f 3e 35 d7 c8 be ea 6b 9a 3e
       0.089458704 0.13983615 -0.3922669 0.30160457
0003f0 96 72 01 3e 37 d7 b7 be 5a f0 09 3e d4 9b f5 3d
       0.12641367 -0.35906383 0.13470593 0.119926125

bias f4 [10]
000000 35 96 dd bd 4a 6c 4e be bb c3 1e 3e 94 8a af 3e
       -0.10819665 -0.20158496 0.15504353 0.34285414
000010 98 74 9e 3e c6 af 96 be 27 f2 ae 3e 3f 3f aa be
       0.3094833 -0.2943098 0.34169123 -0.33251378
000020 73 09 9f bd 1e ed 80 3e
       -0.07765474 0.25180906
